2020-07-23 18:55:32,263 - train - INFO - InceptionTimeV2(
  (inception_block_1): InceptionTimeBlockV2(
    (activation): ReLU()
    (inception_1): InceptionTimeMoudule(
      (bottleneck): Conv1d(12, 32, kernel_size=(1,), stride=(1,), bias=False)
      (conv_from_bottleneck_1): Conv1d(32, 32, kernel_size=(9,), stride=(2,), padding=(4,), bias=False)
      (conv_from_bottleneck_2): Conv1d(32, 32, kernel_size=(19,), stride=(2,), padding=(9,), bias=False)
      (conv_from_bottleneck_3): Conv1d(32, 32, kernel_size=(39,), stride=(2,), padding=(19,), bias=False)
      (max_pool): MaxPool1d(kernel_size=3, stride=1, padding=1, dilation=1, ceil_mode=False)
      (conv_from_maxpool): Conv1d(12, 32, kernel_size=(1,), stride=(2,), bias=False)
      (batch_norm): BatchNorm1d(128, eps=1e-05, momentum=0.1, affine=True, track_running_stats=True)
      (activation): ReLU()
    )
    (inception_2): InceptionTimeMoudule(
      (bottleneck): Conv1d(128, 32, kernel_size=(1,), stride=(1,), bias=False)
      (conv_from_bottleneck_1): Conv1d(32, 32, kernel_size=(9,), stride=(1,), padding=(4,), bias=False)
      (conv_from_bottleneck_2): Conv1d(32, 32, kernel_size=(19,), stride=(1,), padding=(9,), bias=False)
      (conv_from_bottleneck_3): Conv1d(32, 32, kernel_size=(39,), stride=(1,), padding=(19,), bias=False)
      (max_pool): MaxPool1d(kernel_size=3, stride=1, padding=1, dilation=1, ceil_mode=False)
      (conv_from_maxpool): Conv1d(128, 32, kernel_size=(1,), stride=(1,), bias=False)
      (batch_norm): BatchNorm1d(128, eps=1e-05, momentum=0.1, affine=True, track_running_stats=True)
      (activation): ReLU()
    )
    (inception_3): InceptionTimeMoudule(
      (bottleneck): Conv1d(128, 32, kernel_size=(1,), stride=(1,), bias=False)
      (conv_from_bottleneck_1): Conv1d(32, 32, kernel_size=(9,), stride=(2,), padding=(4,), bias=False)
      (conv_from_bottleneck_2): Conv1d(32, 32, kernel_size=(19,), stride=(2,), padding=(9,), bias=False)
      (conv_from_bottleneck_3): Conv1d(32, 32, kernel_size=(39,), stride=(2,), padding=(19,), bias=False)
      (max_pool): MaxPool1d(kernel_size=3, stride=1, padding=1, dilation=1, ceil_mode=False)
      (conv_from_maxpool): Conv1d(128, 32, kernel_size=(1,), stride=(2,), bias=False)
      (batch_norm): BatchNorm1d(128, eps=1e-05, momentum=0.1, affine=True, track_running_stats=True)
      (activation): ReLU()
    )
    (inception_4): InceptionTimeMoudule(
      (bottleneck): Conv1d(128, 32, kernel_size=(1,), stride=(1,), bias=False)
      (conv_from_bottleneck_1): Conv1d(32, 32, kernel_size=(9,), stride=(1,), padding=(4,), bias=False)
      (conv_from_bottleneck_2): Conv1d(32, 32, kernel_size=(19,), stride=(1,), padding=(9,), bias=False)
      (conv_from_bottleneck_3): Conv1d(32, 32, kernel_size=(39,), stride=(1,), padding=(19,), bias=False)
      (max_pool): MaxPool1d(kernel_size=3, stride=1, padding=1, dilation=1, ceil_mode=False)
      (conv_from_maxpool): Conv1d(128, 32, kernel_size=(1,), stride=(1,), bias=False)
      (batch_norm): BatchNorm1d(128, eps=1e-05, momentum=0.1, affine=True, track_running_stats=True)
      (activation): ReLU()
    )
    (inception_5): InceptionTimeMoudule(
      (bottleneck): Conv1d(128, 32, kernel_size=(1,), stride=(1,), bias=False)
      (conv_from_bottleneck_1): Conv1d(32, 32, kernel_size=(9,), stride=(2,), padding=(4,), bias=False)
      (conv_from_bottleneck_2): Conv1d(32, 32, kernel_size=(19,), stride=(2,), padding=(9,), bias=False)
      (conv_from_bottleneck_3): Conv1d(32, 32, kernel_size=(39,), stride=(2,), padding=(19,), bias=False)
      (max_pool): MaxPool1d(kernel_size=3, stride=1, padding=1, dilation=1, ceil_mode=False)
      (conv_from_maxpool): Conv1d(128, 32, kernel_size=(1,), stride=(2,), bias=False)
      (batch_norm): BatchNorm1d(128, eps=1e-05, momentum=0.1, affine=True, track_running_stats=True)
      (activation): ReLU()
    )
    (inception_6): InceptionTimeMoudule(
      (bottleneck): Conv1d(128, 32, kernel_size=(1,), stride=(1,), bias=False)
      (conv_from_bottleneck_1): Conv1d(32, 32, kernel_size=(9,), stride=(1,), padding=(4,), bias=False)
      (conv_from_bottleneck_2): Conv1d(32, 32, kernel_size=(19,), stride=(1,), padding=(9,), bias=False)
      (conv_from_bottleneck_3): Conv1d(32, 32, kernel_size=(39,), stride=(1,), padding=(19,), bias=False)
      (max_pool): MaxPool1d(kernel_size=3, stride=1, padding=1, dilation=1, ceil_mode=False)
      (conv_from_maxpool): Conv1d(128, 32, kernel_size=(1,), stride=(1,), bias=False)
      (batch_norm): BatchNorm1d(128, eps=1e-05, momentum=0.1, affine=True, track_running_stats=True)
      (activation): ReLU()
    )
    (residual): Sequential(
      (0): Conv1d(12, 128, kernel_size=(1,), stride=(8,))
      (1): BatchNorm1d(128, eps=1e-05, momentum=0.1, affine=True, track_running_stats=True)
    )
  )
  (inception_block_2): InceptionTimeBlockV2(
    (activation): ReLU()
    (inception_1): InceptionTimeMoudule(
      (bottleneck): Conv1d(128, 32, kernel_size=(1,), stride=(1,), bias=False)
      (conv_from_bottleneck_1): Conv1d(32, 32, kernel_size=(9,), stride=(2,), padding=(4,), bias=False)
      (conv_from_bottleneck_2): Conv1d(32, 32, kernel_size=(19,), stride=(2,), padding=(9,), bias=False)
      (conv_from_bottleneck_3): Conv1d(32, 32, kernel_size=(39,), stride=(2,), padding=(19,), bias=False)
      (max_pool): MaxPool1d(kernel_size=3, stride=1, padding=1, dilation=1, ceil_mode=False)
      (conv_from_maxpool): Conv1d(128, 32, kernel_size=(1,), stride=(2,), bias=False)
      (batch_norm): BatchNorm1d(128, eps=1e-05, momentum=0.1, affine=True, track_running_stats=True)
      (activation): ReLU()
    )
    (inception_2): InceptionTimeMoudule(
      (bottleneck): Conv1d(128, 32, kernel_size=(1,), stride=(1,), bias=False)
      (conv_from_bottleneck_1): Conv1d(32, 32, kernel_size=(9,), stride=(1,), padding=(4,), bias=False)
      (conv_from_bottleneck_2): Conv1d(32, 32, kernel_size=(19,), stride=(1,), padding=(9,), bias=False)
      (conv_from_bottleneck_3): Conv1d(32, 32, kernel_size=(39,), stride=(1,), padding=(19,), bias=False)
      (max_pool): MaxPool1d(kernel_size=3, stride=1, padding=1, dilation=1, ceil_mode=False)
      (conv_from_maxpool): Conv1d(128, 32, kernel_size=(1,), stride=(1,), bias=False)
      (batch_norm): BatchNorm1d(128, eps=1e-05, momentum=0.1, affine=True, track_running_stats=True)
      (activation): ReLU()
    )
    (inception_3): InceptionTimeMoudule(
      (bottleneck): Conv1d(128, 32, kernel_size=(1,), stride=(1,), bias=False)
      (conv_from_bottleneck_1): Conv1d(32, 32, kernel_size=(9,), stride=(2,), padding=(4,), bias=False)
      (conv_from_bottleneck_2): Conv1d(32, 32, kernel_size=(19,), stride=(2,), padding=(9,), bias=False)
      (conv_from_bottleneck_3): Conv1d(32, 32, kernel_size=(39,), stride=(2,), padding=(19,), bias=False)
      (max_pool): MaxPool1d(kernel_size=3, stride=1, padding=1, dilation=1, ceil_mode=False)
      (conv_from_maxpool): Conv1d(128, 32, kernel_size=(1,), stride=(2,), bias=False)
      (batch_norm): BatchNorm1d(128, eps=1e-05, momentum=0.1, affine=True, track_running_stats=True)
      (activation): ReLU()
    )
    (inception_4): InceptionTimeMoudule(
      (bottleneck): Conv1d(128, 32, kernel_size=(1,), stride=(1,), bias=False)
      (conv_from_bottleneck_1): Conv1d(32, 32, kernel_size=(9,), stride=(1,), padding=(4,), bias=False)
      (conv_from_bottleneck_2): Conv1d(32, 32, kernel_size=(19,), stride=(1,), padding=(9,), bias=False)
      (conv_from_bottleneck_3): Conv1d(32, 32, kernel_size=(39,), stride=(1,), padding=(19,), bias=False)
      (max_pool): MaxPool1d(kernel_size=3, stride=1, padding=1, dilation=1, ceil_mode=False)
      (conv_from_maxpool): Conv1d(128, 32, kernel_size=(1,), stride=(1,), bias=False)
      (batch_norm): BatchNorm1d(128, eps=1e-05, momentum=0.1, affine=True, track_running_stats=True)
      (activation): ReLU()
    )
    (inception_5): InceptionTimeMoudule(
      (bottleneck): Conv1d(128, 32, kernel_size=(1,), stride=(1,), bias=False)
      (conv_from_bottleneck_1): Conv1d(32, 32, kernel_size=(9,), stride=(2,), padding=(4,), bias=False)
      (conv_from_bottleneck_2): Conv1d(32, 32, kernel_size=(19,), stride=(2,), padding=(9,), bias=False)
      (conv_from_bottleneck_3): Conv1d(32, 32, kernel_size=(39,), stride=(2,), padding=(19,), bias=False)
      (max_pool): MaxPool1d(kernel_size=3, stride=1, padding=1, dilation=1, ceil_mode=False)
      (conv_from_maxpool): Conv1d(128, 32, kernel_size=(1,), stride=(2,), bias=False)
      (batch_norm): BatchNorm1d(128, eps=1e-05, momentum=0.1, affine=True, track_running_stats=True)
      (activation): ReLU()
    )
    (inception_6): InceptionTimeMoudule(
      (bottleneck): Conv1d(128, 32, kernel_size=(1,), stride=(1,), bias=False)
      (conv_from_bottleneck_1): Conv1d(32, 32, kernel_size=(9,), stride=(1,), padding=(4,), bias=False)
      (conv_from_bottleneck_2): Conv1d(32, 32, kernel_size=(19,), stride=(1,), padding=(9,), bias=False)
      (conv_from_bottleneck_3): Conv1d(32, 32, kernel_size=(39,), stride=(1,), padding=(19,), bias=False)
      (max_pool): MaxPool1d(kernel_size=3, stride=1, padding=1, dilation=1, ceil_mode=False)
      (conv_from_maxpool): Conv1d(128, 32, kernel_size=(1,), stride=(1,), bias=False)
      (batch_norm): BatchNorm1d(128, eps=1e-05, momentum=0.1, affine=True, track_running_stats=True)
      (activation): ReLU()
    )
    (residual): Sequential(
      (0): Conv1d(128, 128, kernel_size=(1,), stride=(8,))
      (1): BatchNorm1d(128, eps=1e-05, momentum=0.1, affine=True, track_running_stats=True)
    )
  )
  (inception_block_3): InceptionTimeBlockV2(
    (activation): ReLU()
    (inception_1): InceptionTimeMoudule(
      (bottleneck): Conv1d(128, 32, kernel_size=(1,), stride=(1,), bias=False)
      (conv_from_bottleneck_1): Conv1d(32, 32, kernel_size=(9,), stride=(2,), padding=(4,), bias=False)
      (conv_from_bottleneck_2): Conv1d(32, 32, kernel_size=(19,), stride=(2,), padding=(9,), bias=False)
      (conv_from_bottleneck_3): Conv1d(32, 32, kernel_size=(39,), stride=(2,), padding=(19,), bias=False)
      (max_pool): MaxPool1d(kernel_size=3, stride=1, padding=1, dilation=1, ceil_mode=False)
      (conv_from_maxpool): Conv1d(128, 32, kernel_size=(1,), stride=(2,), bias=False)
      (batch_norm): BatchNorm1d(128, eps=1e-05, momentum=0.1, affine=True, track_running_stats=True)
      (activation): ReLU()
    )
    (inception_2): InceptionTimeMoudule(
      (bottleneck): Conv1d(128, 32, kernel_size=(1,), stride=(1,), bias=False)
      (conv_from_bottleneck_1): Conv1d(32, 32, kernel_size=(9,), stride=(1,), padding=(4,), bias=False)
      (conv_from_bottleneck_2): Conv1d(32, 32, kernel_size=(19,), stride=(1,), padding=(9,), bias=False)
      (conv_from_bottleneck_3): Conv1d(32, 32, kernel_size=(39,), stride=(1,), padding=(19,), bias=False)
      (max_pool): MaxPool1d(kernel_size=3, stride=1, padding=1, dilation=1, ceil_mode=False)
      (conv_from_maxpool): Conv1d(128, 32, kernel_size=(1,), stride=(1,), bias=False)
      (batch_norm): BatchNorm1d(128, eps=1e-05, momentum=0.1, affine=True, track_running_stats=True)
      (activation): ReLU()
    )
    (inception_3): InceptionTimeMoudule(
      (bottleneck): Conv1d(128, 32, kernel_size=(1,), stride=(1,), bias=False)
      (conv_from_bottleneck_1): Conv1d(32, 32, kernel_size=(9,), stride=(2,), padding=(4,), bias=False)
      (conv_from_bottleneck_2): Conv1d(32, 32, kernel_size=(19,), stride=(2,), padding=(9,), bias=False)
      (conv_from_bottleneck_3): Conv1d(32, 32, kernel_size=(39,), stride=(2,), padding=(19,), bias=False)
      (max_pool): MaxPool1d(kernel_size=3, stride=1, padding=1, dilation=1, ceil_mode=False)
      (conv_from_maxpool): Conv1d(128, 32, kernel_size=(1,), stride=(2,), bias=False)
      (batch_norm): BatchNorm1d(128, eps=1e-05, momentum=0.1, affine=True, track_running_stats=True)
      (activation): ReLU()
    )
    (inception_4): InceptionTimeMoudule(
      (bottleneck): Conv1d(128, 32, kernel_size=(1,), stride=(1,), bias=False)
      (conv_from_bottleneck_1): Conv1d(32, 32, kernel_size=(9,), stride=(1,), padding=(4,), bias=False)
      (conv_from_bottleneck_2): Conv1d(32, 32, kernel_size=(19,), stride=(1,), padding=(9,), bias=False)
      (conv_from_bottleneck_3): Conv1d(32, 32, kernel_size=(39,), stride=(1,), padding=(19,), bias=False)
      (max_pool): MaxPool1d(kernel_size=3, stride=1, padding=1, dilation=1, ceil_mode=False)
      (conv_from_maxpool): Conv1d(128, 32, kernel_size=(1,), stride=(1,), bias=False)
      (batch_norm): BatchNorm1d(128, eps=1e-05, momentum=0.1, affine=True, track_running_stats=True)
      (activation): ReLU()
    )
    (inception_5): InceptionTimeMoudule(
      (bottleneck): Conv1d(128, 32, kernel_size=(1,), stride=(1,), bias=False)
      (conv_from_bottleneck_1): Conv1d(32, 32, kernel_size=(9,), stride=(2,), padding=(4,), bias=False)
      (conv_from_bottleneck_2): Conv1d(32, 32, kernel_size=(19,), stride=(2,), padding=(9,), bias=False)
      (conv_from_bottleneck_3): Conv1d(32, 32, kernel_size=(39,), stride=(2,), padding=(19,), bias=False)
      (max_pool): MaxPool1d(kernel_size=3, stride=1, padding=1, dilation=1, ceil_mode=False)
      (conv_from_maxpool): Conv1d(128, 32, kernel_size=(1,), stride=(2,), bias=False)
      (batch_norm): BatchNorm1d(128, eps=1e-05, momentum=0.1, affine=True, track_running_stats=True)
      (activation): ReLU()
    )
    (inception_6): InceptionTimeMoudule(
      (bottleneck): Conv1d(128, 32, kernel_size=(1,), stride=(1,), bias=False)
      (conv_from_bottleneck_1): Conv1d(32, 32, kernel_size=(9,), stride=(1,), padding=(4,), bias=False)
      (conv_from_bottleneck_2): Conv1d(32, 32, kernel_size=(19,), stride=(1,), padding=(9,), bias=False)
      (conv_from_bottleneck_3): Conv1d(32, 32, kernel_size=(39,), stride=(1,), padding=(19,), bias=False)
      (max_pool): MaxPool1d(kernel_size=3, stride=1, padding=1, dilation=1, ceil_mode=False)
      (conv_from_maxpool): Conv1d(128, 32, kernel_size=(1,), stride=(1,), bias=False)
      (batch_norm): BatchNorm1d(128, eps=1e-05, momentum=0.1, affine=True, track_running_stats=True)
      (activation): ReLU()
    )
    (residual): Sequential(
      (0): Conv1d(128, 128, kernel_size=(1,), stride=(8,))
      (1): BatchNorm1d(128, eps=1e-05, momentum=0.1, affine=True, track_running_stats=True)
    )
  )
  (fc): Linear(in_features=128, out_features=9, bias=True)
  (sigmoid): Sigmoid()
)
2020-07-23 18:57:29,509 - trainer - INFO -     auprc          : 0.37220252805855797
2020-07-23 18:57:29,510 - trainer - INFO -     accuracy       : 0.8920903515320131
2020-07-23 18:57:29,510 - trainer - INFO -     val_loss       : 0.3069558788177579
2020-07-23 18:57:29,510 - trainer - INFO -     g_beta         : 0.2718808960601537
…
