2020-07-17 21:08:05,805 - train - INFO - InceptionTimeV2(
  (inception_block_1): InceptionTimeBlockV2(
    (activation): ReLU()
    (inception_1): InceptionTimeMoudule(
      (bottleneck): Conv1d(12, 32, kernel_size=(1,), stride=(1,), bias=False)
      (conv_from_bottleneck_1): Conv1d(32, 32, kernel_size=(9,), stride=(2,), padding=(4,), bias=False)
      (conv_from_bottleneck_2): Conv1d(32, 32, kernel_size=(19,), stride=(2,), padding=(9,), bias=False)
      (conv_from_bottleneck_3): Conv1d(32, 32, kernel_size=(39,), stride=(2,), padding=(19,), bias=False)
      (max_pool): MaxPool1d(kernel_size=3, stride=1, padding=1, dilation=1, ceil_mode=False)
      (conv_from_maxpool): Conv1d(12, 32, kernel_size=(1,), stride=(2,), bias=False)
      (batch_norm): BatchNorm1d(128, eps=1e-05, momentum=0.1, affine=True, track_running_stats=True)
      (activation): ReLU()
    )
    (inception_2): InceptionTimeMoudule(
      (bottleneck): Conv1d(128, 32, kernel_size=(1,), stride=(1,), bias=False)
      (conv_from_bottleneck_1): Conv1d(32, 32, kernel_size=(9,), stride=(1,), padding=(4,), bias=False)
      (conv_from_bottleneck_2): Conv1d(32, 32, kernel_size=(19,), stride=(1,), padding=(9,), bias=False)
      (conv_from_bottleneck_3): Conv1d(32, 32, kernel_size=(39,), stride=(1,), padding=(19,), bias=False)
      (max_pool): MaxPool1d(kernel_size=3, stride=1, padding=1, dilation=1, ceil_mode=False)
      (conv_from_maxpool): Conv1d(128, 32, kernel_size=(1,), stride=(1,), bias=False)
      (batch_norm): BatchNorm1d(128, eps=1e-05, momentum=0.1, affine=True, track_running_stats=True)
      (activation): ReLU()
    )
    (inception_3): InceptionTimeMoudule(
      (bottleneck): Conv1d(128, 32, kernel_size=(1,), stride=(1,), bias=False)
      (conv_from_bottleneck_1): Conv1d(32, 32, kernel_size=(9,), stride=(2,), padding=(4,), bias=False)
      (conv_from_bottleneck_2): Conv1d(32, 32, kernel_size=(19,), stride=(2,), padding=(9,), bias=False)
      (conv_from_bottleneck_3): Conv1d(32, 32, kernel_size=(39,), stride=(2,), padding=(19,), bias=False)
      (max_pool): MaxPool1d(kernel_size=3, stride=1, padding=1, dilation=1, ceil_mode=False)
      (conv_from_maxpool): Conv1d(128, 32, kernel_size=(1,), stride=(2,), bias=False)
      (batch_norm): BatchNorm1d(128, eps=1e-05, momentum=0.1, affine=True, track_running_stats=True)
      (activation): ReLU()
    )
    (inception_4): InceptionTimeMoudule(
      (bottleneck): Conv1d(128, 32, kernel_size=(1,), stride=(1,), bias=False)
      (conv_from_bottleneck_1): Conv1d(32, 32, kernel_size=(9,), stride=(1,), padding=(4,), bias=False)
      (conv_from_bottleneck_2): Conv1d(32, 32, kernel_size=(19,), stride=(1,), padding=(9,), bias=False)
      (conv_from_bottleneck_3): Conv1d(32, 32, kernel_size=(39,), stride=(1,), padding=(19,), bias=False)
      (max_pool): MaxPool1d(kernel_size=3, stride=1, padding=1, dilation=1, ceil_mode=False)
      (conv_from_maxpool): Conv1d(128, 32, kernel_size=(1,), stride=(1,), bias=False)
      (batch_norm): BatchNorm1d(128, eps=1e-05, momentum=0.1, affine=True, track_running_stats=True)
      (activation): ReLU()
    )
    (inception_5): InceptionTimeMoudule(
      (bottleneck): Conv1d(128, 32, kernel_size=(1,), stride=(1,), bias=False)
      (conv_from_bottleneck_1): Conv1d(32, 32, kernel_size=(9,), stride=(2,), padding=(4,), bias=False)
      (conv_from_bottleneck_2): Conv1d(32, 32, kernel_size=(19,), stride=(2,), padding=(9,), bias=False)
      (conv_from_bottleneck_3): Conv1d(32, 32, kernel_size=(39,), stride=(2,), padding=(19,), bias=False)
      (max_pool): MaxPool1d(kernel_size=3, stride=1, padding=1, dilation=1, ceil_mode=False)
      (conv_from_maxpool): Conv1d(128, 32, kernel_size=(1,), stride=(2,), bias=False)
      (batch_norm): BatchNorm1d(128, eps=1e-05, momentum=0.1, affine=True, track_running_stats=True)
      (activation): ReLU()
    )
    (inception_6): InceptionTimeMoudule(
      (bottleneck): Conv1d(128, 32, kernel_size=(1,), stride=(1,), bias=False)
      (conv_from_bottleneck_1): Conv1d(32, 32, kernel_size=(9,), stride=(1,), padding=(4,), bias=False)
      (conv_from_bottleneck_2): Conv1d(32, 32, kernel_size=(19,), stride=(1,), padding=(9,), bias=False)
      (conv_from_bottleneck_3): Conv1d(32, 32, kernel_size=(39,), stride=(1,), padding=(19,), bias=False)
      (max_pool): MaxPool1d(kernel_size=3, stride=1, padding=1, dilation=1, ceil_mode=False)
      (conv_from_maxpool): Conv1d(128, 32, kernel_size=(1,), stride=(1,), bias=False)
      (batch_norm): BatchNorm1d(128, eps=1e-05, momentum=0.1, affine=True, track_running_stats=True)
      (activation): ReLU()
    )
    (residual): Sequential(
      (0): Conv1d(12, 128, kernel_size=(1,), stride=(8,))
      (1): BatchNorm1d(128, eps=1e-05, momentum=0.1, affine=True, track_running_stats=True)
    )
  )
  (inception_block_2): InceptionTimeBlockV2(
    (activation): ReLU()
    (inception_1): InceptionTimeMoudule(
      (bottleneck): Conv1d(128, 32, kernel_size=(1,), stride=(1,), bias=False)
      (conv_from_bottleneck_1): Conv1d(32, 32, kernel_size=(9,), stride=(2,), padding=(4,), bias=False)
      (conv_from_bottleneck_2): Conv1d(32, 32, kernel_size=(19,), stride=(2,), padding=(9,), bias=False)
      (conv_from_bottleneck_3): Conv1d(32, 32, kernel_size=(39,), stride=(2,), padding=(19,), bias=False)
      (max_pool): MaxPool1d(kernel_size=3, stride=1, padding=1, dilation=1, ceil_mode=False)
      (conv_from_maxpool): Conv1d(128, 32, kernel_size=(1,), stride=(2,), bias=False)
      (batch_norm): BatchNorm1d(128, eps=1e-05, momentum=0.1, affine=True, track_running_stats=True)
      (activation): ReLU()
    )
    (inception_2): InceptionTimeMoudule(
      (bottleneck): Conv1d(128, 32, kernel_size=(1,), stride=(1,), bias=False)
      (conv_from_bottleneck_1): Conv1d(32, 32, kernel_size=(9,), stride=(1,), padding=(4,), bias=False)
      (conv_from_bottleneck_2): Conv1d(32, 32, kernel_size=(19,), stride=(1,), padding=(9,), bias=False)
      (conv_from_bottleneck_3): Conv1d(32, 32, kernel_size=(39,), stride=(1,), padding=(19,), bias=False)
      (max_pool): MaxPool1d(kernel_size=3, stride=1, padding=1, dilation=1, ceil_mode=False)
      (conv_from_maxpool): Conv1d(128, 32, kernel_size=(1,), stride=(1,), bias=False)
      (batch_norm): BatchNorm1d(128, eps=1e-05, momentum=0.1, affine=True, track_running_stats=True)
      (activation): ReLU()
    )
    (inception_3): InceptionTimeMoudule(
      (bottleneck): Conv1d(128, 32, kernel_size=(1,), stride=(1,), bias=False)
      (conv_from_bottleneck_1): Conv1d(32, 32, kernel_size=(9,), stride=(2,), padding=(4,), bias=False)
      (conv_from_bottleneck_2): Conv1d(32, 32, kernel_size=(19,), stride=(2,), padding=(9,), bias=False)
      (conv_from_bottleneck_3): Conv1d(32, 32, kernel_size=(39,), stride=(2,), padding=(19,), bias=False)
      (max_pool): MaxPool1d(kernel_size=3, stride=1, padding=1, dilation=1, ceil_mode=False)
      (conv_from_maxpool): Conv1d(128, 32, kernel_size=(1,), stride=(2,), bias=False)
      (batch_norm): BatchNorm1d(128, eps=1e-05, momentum=0.1, affine=True, track_running_stats=True)
      (activation): ReLU()
    )
    (inception_4): InceptionTimeMoudule(
      (bottleneck): Conv1d(128, 32, kernel_size=(1,), stride=(1,), bias=False)
      (conv_from_bottleneck_1): Conv1d(32, 32, kernel_size=(9,), stride=(1,), padding=(4,), bias=False)
      (conv_from_bottleneck_2): Conv1d(32, 32, kernel_size=(19,), stride=(1,), padding=(9,), bias=False)
      (conv_from_bottleneck_3): Conv1d(32, 32, kernel_size=(39,), stride=(1,), padding=(19,), bias=False)
      (max_pool): MaxPool1d(kernel_size=3, stride=1, padding=1, dilation=1, ceil_mode=False)
      (conv_from_maxpool): Conv1d(128, 32, kernel_size=(1,), stride=(1,), bias=False)
      (batch_norm): BatchNorm1d(128, eps=1e-05, momentum=0.1, affine=True, track_running_stats=True)
      (activation): ReLU()
    )
    (inception_5): InceptionTimeMoudule(
      (bottleneck): Conv1d(128, 32, kernel_size=(1,), stride=(1,), bias=False)
      (conv_from_bottleneck_1): Conv1d(32, 32, kernel_size=(9,), stride=(2,), padding=(4,), bias=False)
      (conv_from_bottleneck_2): Conv1d(32, 32, kernel_size=(19,), stride=(2,), padding=(9,), bias=False)
      (conv_from_bottleneck_3): Conv1d(32, 32, kernel_size=(39,), stride=(2,), padding=(19,), bias=False)
      (max_pool): MaxPool1d(kernel_size=3, stride=1, padding=1, dilation=1, ceil_mode=False)
      (conv_from_maxpool): Conv1d(128, 32, kernel_size=(1,), stride=(2,), bias=False)
      (batch_norm): BatchNorm1d(128, eps=1e-05, momentum=0.1, affine=True, track_running_stats=True)
      (activation): ReLU()
    )
    (inception_6): InceptionTimeMoudule(
      (bottleneck): Conv1d(128, 32, kernel_size=(1,), stride=(1,), bias=False)
      (conv_from_bottleneck_1): Conv1d(32, 32, kernel_size=(9,), stride=(1,), padding=(4,), bias=False)
      (conv_from_bottleneck_2): Conv1d(32, 32, kernel_size=(19,), stride=(1,), padding=(9,), bias=False)
      (conv_from_bottleneck_3): Conv1d(32, 32, kernel_size=(39,), stride=(1,), padding=(19,), bias=False)
      (max_pool): MaxPool1d(kernel_size=3, stride=1, padding=1, dilation=1, ceil_mode=False)
      (conv_from_maxpool): Conv1d(128, 32, kernel_size=(1,), stride=(1,), bias=False)
      (batch_norm): BatchNorm1d(128, eps=1e-05, momentum=0.1, affine=True, track_running_stats=True)
      (activation): ReLU()
    )
    (residual): Sequential(
      (0): Conv1d(128, 128, kernel_size=(1,), stride=(8,))
      (1): BatchNorm1d(128, eps=1e-05, momentum=0.1, affine=True, track_running_stats=True)
    )
  )
  (inception_block_3): InceptionTimeBlockV2(
    (activation): ReLU()
    (inception_1): InceptionTimeMoudule(
      (bottleneck): Conv1d(128, 32, kernel_size=(1,), stride=(1,), bias=False)
      (conv_from_bottleneck_1): Conv1d(32, 32, kernel_size=(9,), stride=(2,), padding=(4,), bias=False)
      (conv_from_bottleneck_2): Conv1d(32, 32, kernel_size=(19,), stride=(2,), padding=(9,), bias=False)
      (conv_from_bottleneck_3): Conv1d(32, 32, kernel_size=(39,), stride=(2,), padding=(19,), bias=False)
      (max_pool): MaxPool1d(kernel_size=3, stride=1, padding=1, dilation=1, ceil_mode=False)
      (conv_from_maxpool): Conv1d(128, 32, kernel_size=(1,), stride=(2,), bias=False)
      (batch_norm): BatchNorm1d(128, eps=1e-05, momentum=0.1, affine=True, track_running_stats=True)
      (activation): ReLU()
    )
    (inception_2): InceptionTimeMoudule(
      (bottleneck): Conv1d(128, 32, kernel_size=(1,), stride=(1,), bias=False)
      (conv_from_bottleneck_1): Conv1d(32, 32, kernel_size=(9,), stride=(1,), padding=(4,), bias=False)
      (conv_from_bottleneck_2): Conv1d(32, 32, kernel_size=(19,), stride=(1,), padding=(9,), bias=False)
      (conv_from_bottleneck_3): Conv1d(32, 32, kernel_size=(39,), stride=(1,), padding=(19,), bias=False)
      (max_pool): MaxPool1d(kernel_size=3, stride=1, padding=1, dilation=1, ceil_mode=False)
      (conv_from_maxpool): Conv1d(128, 32, kernel_size=(1,), stride=(1,), bias=False)
      (batch_norm): BatchNorm1d(128, eps=1e-05, momentum=0.1, affine=True, track_running_stats=True)
      (activation): ReLU()
    )
    (inception_3): InceptionTimeMoudule(
      (bottleneck): Conv1d(128, 32, kernel_size=(1,), stride=(1,), bias=False)
      (conv_from_bottleneck_1): Conv1d(32, 32, kernel_size=(9,), stride=(2,), padding=(4,), bias=False)
      (conv_from_bottleneck_2): Conv1d(32, 32, kernel_size=(19,), stride=(2,), padding=(9,), bias=False)
      (conv_from_bottleneck_3): Conv1d(32, 32, kernel_size=(39,), stride=(2,), padding=(19,), bias=False)
      (max_pool): MaxPool1d(kernel_size=3, stride=1, padding=1, dilation=1, ceil_mode=False)
      (conv_from_maxpool): Conv1d(128, 32, kernel_size=(1,), stride=(2,), bias=False)
      (batch_norm): BatchNorm1d(128, eps=1e-05, momentum=0.1, affine=True, track_running_stats=True)
      (activation): ReLU()
    )
    (inception_4): InceptionTimeMoudule(
      (bottleneck): Conv1d(128, 32, kernel_size=(1,), stride=(1,), bias=False)
      (conv_from_bottleneck_1): Conv1d(32, 32, kernel_size=(9,), stride=(1,), padding=(4,), bias=False)
      (conv_from_bottleneck_2): Conv1d(32, 32, kernel_size=(19,), stride=(1,), padding=(9,), bias=False)
      (conv_from_bottleneck_3): Conv1d(32, 32, kernel_size=(39,), stride=(1,), padding=(19,), bias=False)
      (max_pool): MaxPool1d(kernel_size=3, stride=1, padding=1, dilation=1, ceil_mode=False)
      (conv_from_maxpool): Conv1d(128, 32, kernel_size=(1,), stride=(1,), bias=False)
      (batch_norm): BatchNorm1d(128, eps=1e-05, momentum=0.1, affine=True, track_running_stats=True)
      (activation): ReLU()
    )
    (inception_5): InceptionTimeMoudule(
      (bottleneck): Conv1d(128, 32, kernel_size=(1,), stride=(1,), bias=False)
      (conv_from_bottleneck_1): Conv1d(32, 32, kernel_size=(9,), stride=(2,), padding=(4,), bias=False)
      (conv_from_bottleneck_2): Conv1d(32, 32, kernel_size=(19,), stride=(2,), padding=(9,), bias=False)
      (conv_from_bottleneck_3): Conv1d(32, 32, kernel_size=(39,), stride=(2,), padding=(19,), bias=False)
      (max_pool): MaxPool1d(kernel_size=3, stride=1, padding=1, dilation=1, ceil_mode=False)
      (conv_from_maxpool): Conv1d(128, 32, kernel_size=(1,), stride=(2,), bias=False)
      (batch_norm): BatchNorm1d(128, eps=1e-05, momentum=0.1, affine=True, track_running_stats=True)
      (activation): ReLU()
    )
    (inception_6): InceptionTimeMoudule(
      (bottleneck): Conv1d(128, 32, kernel_size=(1,), stride=(1,), bias=False)
      (conv_from_bottleneck_1): Conv1d(32, 32, kernel_size=(9,), stride=(1,), padding=(4,), bias=False)
      (conv_from_bottleneck_2): Conv1d(32, 32, kernel_size=(19,), stride=(1,), padding=(9,), bias=False)
      (conv_from_bottleneck_3): Conv1d(32, 32, kernel_size=(39,), stride=(1,), padding=(19,), bias=False)
      (max_pool): MaxPool1d(kernel_size=3, stride=1, padding=1, dilation=1, ceil_mode=False)
      (conv_from_maxpool): Conv1d(128, 32, kernel_size=(1,), stride=(1,), bias=False)
      (batch_norm): BatchNorm1d(128, eps=1e-05, momentum=0.1, affine=True, track_running_stats=True)
      (activation): ReLU()
    )
    (residual): Sequential(
      (0): Conv1d(128, 128, kernel_size=(1,), stride=(8,))
      (1): BatchNorm1d(128, eps=1e-05, momentum=0.1, affine=True, track_running_stats=True)
    )
  )
  (fc): Linear(in_features=128, out_features=9, bias=True)
  (sigmoid): Sigmoid()
)
2020-07-17 21:09:21,026 - trainer - INFO -     val_accuracy   : 0.8959256473943334
2020-07-17 21:09:21,027 - trainer - INFO -     epoch          : 1
2020-07-17 21:09:21,027 - trainer - INFO -     f_measure      : 0.2980790452596526
2020-07-17 21:09:21,027 - trainer - INFO -     f_beta         : 0.29705941681936365
2020-07-17 21:09:21,028 - trainer - INFO -     val_auprc      : 0.393651072883954
…
