2020-07-22 19:38:21,350 - train - INFO - TCN(
  (tcn): TemporalConvNet(
    (network): Sequential(
      (0): TemporalBlock(
        (conv1): Conv1d(12, 32, kernel_size=(7,), stride=(1,), padding=(6,))
        (chomp1): Chomp1d()
        (relu1): ReLU()
        (dropout1): Dropout(p=0.2, inplace=False)
        (conv2): Conv1d(32, 32, kernel_size=(7,), stride=(1,), padding=(6,))
        (chomp2): Chomp1d()
        (relu2): ReLU()
        (dropout2): Dropout(p=0.2, inplace=False)
        (net): Sequential(
          (0): Conv1d(12, 32, kernel_size=(7,), stride=(1,), padding=(6,))
          (1): Chomp1d()
          (2): ReLU()
          (3): Dropout(p=0.2, inplace=False)
          (4): Conv1d(32, 32, kernel_size=(7,), stride=(1,), padding=(6,))
          (5): Chomp1d()
          (6): ReLU()
          (7): Dropout(p=0.2, inplace=False)
        )
        (downsample): Conv1d(12, 32, kernel_size=(1,), stride=(1,))
        (relu): ReLU()
      )
      (1): TemporalBlock(
        (conv1): Conv1d(32, 32, kernel_size=(7,), stride=(1,), padding=(12,), dilation=(2,))
        (chomp1): Chomp1d()
        (relu1): ReLU()
        (dropout1): Dropout(p=0.2, inplace=False)
        (conv2): Conv1d(32, 32, kernel_size=(7,), stride=(1,), padding=(12,), dilation=(2,))
        (chomp2): Chomp1d()
        (relu2): ReLU()
        (dropout2): Dropout(p=0.2, inplace=False)
        (net): Sequential(
          (0): Conv1d(32, 32, kernel_size=(7,), stride=(1,), padding=(12,), dilation=(2,))
          (1): Chomp1d()
          (2): ReLU()
          (3): Dropout(p=0.2, inplace=False)
          (4): Conv1d(32, 32, kernel_size=(7,), stride=(1,), padding=(12,), dilation=(2,))
          (5): Chomp1d()
          (6): ReLU()
          (7): Dropout(p=0.2, inplace=False)
        )
        (relu): ReLU()
      )
      (2): TemporalBlock(
        (conv1): Conv1d(32, 32, kernel_size=(7,), stride=(1,), padding=(24,), dilation=(4,))
        (chomp1): Chomp1d()
        (relu1): ReLU()
        (dropout1): Dropout(p=0.2, inplace=False)
        (conv2): Conv1d(32, 32, kernel_size=(7,), stride=(1,), padding=(24,), dilation=(4,))
        (chomp2): Chomp1d()
        (relu2): ReLU()
        (dropout2): Dropout(p=0.2, inplace=False)
        (net): Sequential(
          (0): Conv1d(32, 32, kernel_size=(7,), stride=(1,), padding=(24,), dilation=(4,))
          (1): Chomp1d()
          (2): ReLU()
          (3): Dropout(p=0.2, inplace=False)
          (4): Conv1d(32, 32, kernel_size=(7,), stride=(1,), padding=(24,), dilation=(4,))
          (5): Chomp1d()
          (6): ReLU()
          (7): Dropout(p=0.2, inplace=False)
        )
        (relu): ReLU()
      )
      (3): TemporalBlock(
        (conv1): Conv1d(32, 32, kernel_size=(7,), stride=(1,), padding=(48,), dilation=(8,))
        (chomp1): Chomp1d()
        (relu1): ReLU()
        (dropout1): Dropout(p=0.2, inplace=False)
        (conv2): Conv1d(32, 32, kernel_size=(7,), stride=(1,), padding=(48,), dilation=(8,))
        (chomp2): Chomp1d()
        (relu2): ReLU()
        (dropout2): Dropout(p=0.2, inplace=False)
        (net): Sequential(
          (0): Conv1d(32, 32, kernel_size=(7,), stride=(1,), padding=(48,), dilation=(8,))
          (1): Chomp1d()
          (2): ReLU()
          (3): Dropout(p=0.2, inplace=False)
          (4): Conv1d(32, 32, kernel_size=(7,), stride=(1,), padding=(48,), dilation=(8,))
          (5): Chomp1d()
          (6): ReLU()
          (7): Dropout(p=0.2, inplace=False)
        )
        (relu): ReLU()
      )
    )
  )
  (linear): Linear(in_features=32, out_features=108, bias=True)
  (sigmoid): Sigmoid()
)
2020-07-22 19:55:55,886 - trainer - INFO -     val_accuracy   : 0.12046130952380953
2020-07-22 19:55:55,887 - trainer - INFO -     val_loss       : 0.08432966115928832
2020-07-22 19:55:55,887 - trainer - INFO -     val_macro_auroc: 0.7058684967488238
2020-07-22 19:55:55,887 - trainer - INFO -     val_f_measure  : 0.016242270194076834
…
