2020-07-22 19:26:54,180 - train - INFO - InceptionTimeV2(
  (inception_block_1): InceptionTimeBlockV2(
    (activation): ReLU()
    (inception_1): InceptionTimeMoudule(
      (bottleneck): Conv1d(12, 32, kernel_size=(1,), stride=(1,), bias=False)
      (conv_from_bottleneck_1): Conv1d(32, 32, kernel_size=(3,), stride=(2,), padding=(1,), bias=False)
      (conv_from_bottleneck_2): Conv1d(32, 32, kernel_size=(7,), stride=(2,), padding=(3,), bias=False)
      (conv_from_bottleneck_3): Conv1d(32, 32, kernel_size=(15,), stride=(2,), padding=(7,), bias=False)
      (max_pool): MaxPool1d(kernel_size=3, stride=1, padding=1, dilation=1, ceil_mode=False)
      (conv_from_maxpool): Conv1d(12, 32, kernel_size=(1,), stride=(2,), bias=False)
      (batch_norm): BatchNorm1d(128, eps=1e-05, momentum=0.1, affine=True, track_running_stats=True)
      (activation): ReLU()
    )
    (inception_2): InceptionTimeMoudule(
      (bottleneck): Conv1d(128, 32, kernel_size=(1,), stride=(1,), bias=False)
      (conv_from_bottleneck_1): Conv1d(32, 32, kernel_size=(3,), stride=(1,), padding=(1,), bias=False)
      (conv_from_bottleneck_2): Conv1d(32, 32, kernel_size=(7,), stride=(1,), padding=(3,), bias=False)
      (conv_from_bottleneck_3): Conv1d(32, 32, kernel_size=(15,), stride=(1,), padding=(7,), bias=False)
      (max_pool): MaxPool1d(kernel_size=3, stride=1, padding=1, dilation=1, ceil_mode=False)
      (conv_from_maxpool): Conv1d(128, 32, kernel_size=(1,), stride=(1,), bias=False)
      (batch_norm): BatchNorm1d(128, eps=1e-05, momentum=0.1, affine=True, track_running_stats=True)
      (activation): ReLU()
    )
    (inception_3): InceptionTimeMoudule(
      (bottleneck): Conv1d(128, 32, kernel_size=(1,), stride=(1,), bias=False)
      (conv_from_bottleneck_1): Conv1d(32, 32, kernel_size=(3,), stride=(2,), padding=(1,), bias=False)
      (conv_from_bottleneck_2): Conv1d(32, 32, kernel_size=(7,), stride=(2,), padding=(3,), bias=False)
      (conv_from_bottleneck_3): Conv1d(32, 32, kernel_size=(15,), stride=(2,), padding=(7,), bias=False)
      (max_pool): MaxPool1d(kernel_size=3, stride=1, padding=1, dilation=1, ceil_mode=False)
      (conv_from_maxpool): Conv1d(128, 32, kernel_size=(1,), stride=(2,), bias=False)
      (batch_norm): BatchNorm1d(128, eps=1e-05, momentum=0.1, affine=True, track_running_stats=True)
      (activation): ReLU()
    )
    (inception_4): InceptionTimeMoudule(
      (bottleneck): Conv1d(128, 32, kernel_size=(1,), stride=(1,), bias=False)
      (conv_from_bottleneck_1): Conv1d(32, 32, kernel_size=(3,), stride=(1,), padding=(1,), bias=False)
      (conv_from_bottleneck_2): Conv1d(32, 32, kernel_size=(7,), stride=(1,), padding=(3,), bias=False)
      (conv_from_bottleneck_3): Conv1d(32, 32, kernel_size=(15,), stride=(1,), padding=(7,), bias=False)
      (max_pool): MaxPool1d(kernel_size=3, stride=1, padding=1, dilation=1, ceil_mode=False)
      (conv_from_maxpool): Conv1d(128, 32, kernel_size=(1,), stride=(1,), bias=False)
      (batch_norm): BatchNorm1d(128, eps=1e-05, momentum=0.1, affine=True, track_running_stats=True)
      (activation): ReLU()
    )
    (inception_5): InceptionTimeMoudule(
      (bottleneck): Conv1d(128, 32, kernel_size=(1,), stride=(1,), bias=False)
      (conv_from_bottleneck_1): Conv1d(32, 32, kernel_size=(3,), stride=(2,), padding=(1,), bias=False)
      (conv_from_bottleneck_2): Conv1d(32, 32, kernel_size=(7,), stride=(2,), padding=(3,), bias=False)
      (conv_from_bottleneck_3): Conv1d(32, 32, kernel_size=(15,), stride=(2,), padding=(7,), bias=False)
      (max_pool): MaxPool1d(kernel_size=3, stride=1, padding=1, dilation=1, ceil_mode=False)
      (conv_from_maxpool): Conv1d(128, 32, kernel_size=(1,), stride=(2,), bias=False)
      (batch_norm): BatchNorm1d(128, eps=1e-05, momentum=0.1, affine=True, track_running_stats=True)
      (activation): ReLU()
    )
    (inception_6): InceptionTimeMoudule(
      (bottleneck): Conv1d(128, 32, kernel_size=(1,), stride=(1,), bias=False)
      (conv_from_bottleneck_1): Conv1d(32, 32, kernel_size=(3,), stride=(1,), padding=(1,), bias=False)
      (conv_from_bottleneck_2): Conv1d(32, 32, kernel_size=(7,), stride=(1,), padding=(3,), bias=False)
      (conv_from_bottleneck_3): Conv1d(32, 32, kernel_size=(15,), stride=(1,), padding=(7,), bias=False)
      (max_pool): MaxPool1d(kernel_size=3, stride=1, padding=1, dilation=1, ceil_mode=False)
      (conv_from_maxpool): Conv1d(128, 32, kernel_size=(1,), stride=(1,), bias=False)
      (batch_norm): BatchNorm1d(128, eps=1e-05, momentum=0.1, affine=True, track_running_stats=True)
      (activation): ReLU()
    )
    (residual): Sequential(
      (0): Conv1d(12, 128, kernel_size=(1,), stride=(8,))
      (1): BatchNorm1d(128, eps=1e-05, momentum=0.1, affine=True, track_running_stats=True)
    )
  )
  (inception_block_2): InceptionTimeBlockV2(
    (activation): ReLU()
    (inception_1): InceptionTimeMoudule(
      (bottleneck): Conv1d(128, 32, kernel_size=(1,), stride=(1,), bias=False)
      (conv_from_bottleneck_1): Conv1d(32, 32, kernel_size=(3,), stride=(2,), padding=(1,), bias=False)
      (conv_from_bottleneck_2): Conv1d(32, 32, kernel_size=(7,), stride=(2,), padding=(3,), bias=False)
      (conv_from_bottleneck_3): Conv1d(32, 32, kernel_size=(15,), stride=(2,), padding=(7,), bias=False)
      (max_pool): MaxPool1d(kernel_size=3, stride=1, padding=1, dilation=1, ceil_mode=False)
      (conv_from_maxpool): Conv1d(128, 32, kernel_size=(1,), stride=(2,), bias=False)
      (batch_norm): BatchNorm1d(128, eps=1e-05, momentum=0.1, affine=True, track_running_stats=True)
      (activation): ReLU()
    )
    (inception_2): InceptionTimeMoudule(
      (bottleneck): Conv1d(128, 32, kernel_size=(1,), stride=(1,), bias=False)
      (conv_from_bottleneck_1): Conv1d(32, 32, kernel_size=(3,), stride=(1,), padding=(1,), bias=False)
      (conv_from_bottleneck_2): Conv1d(32, 32, kernel_size=(7,), stride=(1,), padding=(3,), bias=False)
      (conv_from_bottleneck_3): Conv1d(32, 32, kernel_size=(15,), stride=(1,), padding=(7,), bias=False)
      (max_pool): MaxPool1d(kernel_size=3, stride=1, padding=1, dilation=1, ceil_mode=False)
      (conv_from_maxpool): Conv1d(128, 32, kernel_size=(1,), stride=(1,), bias=False)
      (batch_norm): BatchNorm1d(128, eps=1e-05, momentum=0.1, affine=True, track_running_stats=True)
      (activation): ReLU()
    )
    (inception_3): InceptionTimeMoudule(
      (bottleneck): Conv1d(128, 32, kernel_size=(1,), stride=(1,), bias=False)
      (conv_from_bottleneck_1): Conv1d(32, 32, kernel_size=(3,), stride=(2,), padding=(1,), bias=False)
      (conv_from_bottleneck_2): Conv1d(32, 32, kernel_size=(7,), stride=(2,), padding=(3,), bias=False)
      (conv_from_bottleneck_3): Conv1d(32, 32, kernel_size=(15,), stride=(2,), padding=(7,), bias=False)
      (max_pool): MaxPool1d(kernel_size=3, stride=1, padding=1, dilation=1, ceil_mode=False)
      (conv_from_maxpool): Conv1d(128, 32, kernel_size=(1,), stride=(2,), bias=False)
      (batch_norm): BatchNorm1d(128, eps=1e-05, momentum=0.1, affine=True, track_running_stats=True)
      (activation): ReLU()
    )
    (inception_4): InceptionTimeMoudule(
      (bottleneck): Conv1d(128, 32, kernel_size=(1,), stride=(1,), bias=False)
      (conv_from_bottleneck_1): Conv1d(32, 32, kernel_size=(3,), stride=(1,), padding=(1,), bias=False)
      (conv_from_bottleneck_2): Conv1d(32, 32, kernel_size=(7,), stride=(1,), padding=(3,), bias=False)
      (conv_from_bottleneck_3): Conv1d(32, 32, kernel_size=(15,), stride=(1,), padding=(7,), bias=False)
      (max_pool): MaxPool1d(kernel_size=3, stride=1, padding=1, dilation=1, ceil_mode=False)
      (conv_from_maxpool): Conv1d(128, 32, kernel_size=(1,), stride=(1,), bias=False)
      (batch_norm): BatchNorm1d(128, eps=1e-05, momentum=0.1, affine=True, track_running_stats=True)
      (activation): ReLU()
    )
    (inception_5): InceptionTimeMoudule(
      (bottleneck): Conv1d(128, 32, kernel_size=(1,), stride=(1,), bias=False)
      (conv_from_bottleneck_1): Conv1d(32, 32, kernel_size=(3,), stride=(2,), padding=(1,), bias=False)
      (conv_from_bottleneck_2): Conv1d(32, 32, kernel_size=(7,), stride=(2,), padding=(3,), bias=False)
      (conv_from_bottleneck_3): Conv1d(32, 32, kernel_size=(15,), stride=(2,), padding=(7,), bias=False)
      (max_pool): MaxPool1d(kernel_size=3, stride=1, padding=1, dilation=1, ceil_mode=False)
      (conv_from_maxpool): Conv1d(128, 32, kernel_size=(1,), stride=(2,), bias=False)
      (batch_norm): BatchNorm1d(128, eps=1e-05, momentum=0.1, affine=True, track_running_stats=True)
      (activation): ReLU()
    )
    (inception_6): InceptionTimeMoudule(
      (bottleneck): Conv1d(128, 32, kernel_size=(1,), stride=(1,), bias=False)
      (conv_from_bottleneck_1): Conv1d(32, 32, kernel_size=(3,), stride=(1,), padding=(1,), bias=False)
      (conv_from_bottleneck_2): Conv1d(32, 32, kernel_size=(7,), stride=(1,), padding=(3,), bias=False)
      (conv_from_bottleneck_3): Conv1d(32, 32, kernel_size=(15,), stride=(1,), padding=(7,), bias=False)
      (max_pool): MaxPool1d(kernel_size=3, stride=1, padding=1, dilation=1, ceil_mode=False)
      (conv_from_maxpool): Conv1d(128, 32, kernel_size=(1,), stride=(1,), bias=False)
      (batch_norm): BatchNorm1d(128, eps=1e-05, momentum=0.1, affine=True, track_running_stats=True)
      (activation): ReLU()
    )
    (residual): Sequential(
      (0): Conv1d(128, 128, kernel_size=(1,), stride=(8,))
      (1): BatchNorm1d(128, eps=1e-05, momentum=0.1, affine=True, track_running_stats=True)
    )
  )
  (inception_block_3): InceptionTimeBlockV2(
    (activation): ReLU()
    (inception_1): InceptionTimeMoudule(
      (bottleneck): Conv1d(128, 32, kernel_size=(1,), stride=(1,), bias=False)
      (conv_from_bottleneck_1): Conv1d(32, 32, kernel_size=(3,), stride=(2,), padding=(1,), bias=False)
      (conv_from_bottleneck_2): Conv1d(32, 32, kernel_size=(7,), stride=(2,), padding=(3,), bias=False)
      (conv_from_bottleneck_3): Conv1d(32, 32, kernel_size=(15,), stride=(2,), padding=(7,), bias=False)
      (max_pool): MaxPool1d(kernel_size=3, stride=1, padding=1, dilation=1, ceil_mode=False)
      (conv_from_maxpool): Conv1d(128, 32, kernel_size=(1,), stride=(2,), bias=False)
      (batch_norm): BatchNorm1d(128, eps=1e-05, momentum=0.1, affine=True, track_running_stats=True)
      (activation): ReLU()
    )
    (inception_2): InceptionTimeMoudule(
      (bottleneck): Conv1d(128, 32, kernel_size=(1,), stride=(1,), bias=False)
      (conv_from_bottleneck_1): Conv1d(32, 32, kernel_size=(3,), stride=(1,), padding=(1,), bias=False)
      (conv_from_bottleneck_2): Conv1d(32, 32, kernel_size=(7,), stride=(1,), padding=(3,), bias=False)
      (conv_from_bottleneck_3): Conv1d(32, 32, kernel_size=(15,), stride=(1,), padding=(7,), bias=False)
      (max_pool): MaxPool1d(kernel_size=3, stride=1, padding=1, dilation=1, ceil_mode=False)
      (conv_from_maxpool): Conv1d(128, 32, kernel_size=(1,), stride=(1,), bias=False)
      (batch_norm): BatchNorm1d(128, eps=1e-05, momentum=0.1, affine=True, track_running_stats=True)
      (activation): ReLU()
    )
    (inception_3): InceptionTimeMoudule(
      (bottleneck): Conv1d(128, 32, kernel_size=(1,), stride=(1,), bias=False)
      (conv_from_bottleneck_1): Conv1d(32, 32, kernel_size=(3,), stride=(2,), padding=(1,), bias=False)
      (conv_from_bottleneck_2): Conv1d(32, 32, kernel_size=(7,), stride=(2,), padding=(3,), bias=False)
      (conv_from_bottleneck_3): Conv1d(32, 32, kernel_size=(15,), stride=(2,), padding=(7,), bias=False)
      (max_pool): MaxPool1d(kernel_size=3, stride=1, padding=1, dilation=1, ceil_mode=False)
      (conv_from_maxpool): Conv1d(128, 32, kernel_size=(1,), stride=(2,), bias=False)
      (batch_norm): BatchNorm1d(128, eps=1e-05, momentum=0.1, affine=True, track_running_stats=True)
      (activation): ReLU()
    )
    (inception_4): InceptionTimeMoudule(
      (bottleneck): Conv1d(128, 32, kernel_size=(1,), stride=(1,), bias=False)
      (conv_from_bottleneck_1): Conv1d(32, 32, kernel_size=(3,), stride=(1,), padding=(1,), bias=False)
      (conv_from_bottleneck_2): Conv1d(32, 32, kernel_size=(7,), stride=(1,), padding=(3,), bias=False)
      (conv_from_bottleneck_3): Conv1d(32, 32, kernel_size=(15,), stride=(1,), padding=(7,), bias=False)
      (max_pool): MaxPool1d(kernel_size=3, stride=1, padding=1, dilation=1, ceil_mode=False)
      (conv_from_maxpool): Conv1d(128, 32, kernel_size=(1,), stride=(1,), bias=False)
      (batch_norm): BatchNorm1d(128, eps=1e-05, momentum=0.1, affine=True, track_running_stats=True)
      (activation): ReLU()
    )
    (inception_5): InceptionTimeMoudule(
      (bottleneck): Conv1d(128, 32, kernel_size=(1,), stride=(1,), bias=False)
      (conv_from_bottleneck_1): Conv1d(32, 32, kernel_size=(3,), stride=(2,), padding=(1,), bias=False)
      (conv_from_bottleneck_2): Conv1d(32, 32, kernel_size=(7,), stride=(2,), padding=(3,), bias=False)
      (conv_from_bottleneck_3): Conv1d(32, 32, kernel_size=(15,), stride=(2,), padding=(7,), bias=False)
      (max_pool): MaxPool1d(kernel_size=3, stride=1, padding=1, dilation=1, ceil_mode=False)
      (conv_from_maxpool): Conv1d(128, 32, kernel_size=(1,), stride=(2,), bias=False)
      (batch_norm): BatchNorm1d(128, eps=1e-05, momentum=0.1, affine=True, track_running_stats=True)
      (activation): ReLU()
    )
    (inception_6): InceptionTimeMoudule(
      (bottleneck): Conv1d(128, 32, kernel_size=(1,), stride=(1,), bias=False)
      (conv_from_bottleneck_1): Conv1d(32, 32, kernel_size=(3,), stride=(1,), padding=(1,), bias=False)
      (conv_from_bottleneck_2): Conv1d(32, 32, kernel_size=(7,), stride=(1,), padding=(3,), bias=False)
      (conv_from_bottleneck_3): Conv1d(32, 32, kernel_size=(15,), stride=(1,), padding=(7,), bias=False)
      (max_pool): MaxPool1d(kernel_size=3, stride=1, padding=1, dilation=1, ceil_mode=False)
      (conv_from_maxpool): Conv1d(128, 32, kernel_size=(1,), stride=(1,), bias=False)
      (batch_norm): BatchNorm1d(128, eps=1e-05, momentum=0.1, affine=True, track_running_stats=True)
      (activation): ReLU()
    )
    (residual): Sequential(
      (0): Conv1d(128, 128, kernel_size=(1,), stride=(8,))
      (1): BatchNorm1d(128, eps=1e-05, momentum=0.1, affine=True, track_running_stats=True)
    )
  )
  (fc): Linear(in_features=128, out_features=108, bias=True)
  (sigmoid): Sigmoid()
)
2020-07-22 19:27:38,010 - trainer - WARNING - Warning: visualization (Tensorboard) is configured to use, but currently not installed on this machine. Please install TensorboardX with 'pip install tensorboardx', upgrade PyTorch to version >= 1.1 to use 'torch.utils.tensorboard' or turn off the option in the 'config.json' file.
2020-07-22 19:34:31,841 - trainer - INFO -     epoch          : 1
…
